…
fer_class': "<class 'stable_baselines3.common.buffers.DictRolloutBuffer'>", 'rollout_buffer_kwargs': '{}', 'batch_size': 64, 'n_epochs': 10, 'clip_range': '<function get_schedule_fn.<locals>.<lambda> at 0x7ff2f5cddb40>', 'clip_range_vf': 'None', 'normalize_advantage': 'True', 'target_kl': 'None', 'lr_schedule': '<function get_schedule_fn.<locals>.<lambda> at 0x7ff3000eff40>', 'rollout_buffer': '<stable_baselines3.common.buffers.DictRolloutBuffer object at 0x7ff30010c4c0>', 'policy': 'CustomMultiInputPolicy(\n  (features_extractor): CustomDictFeaturesExtractor(\n    (cnn): Sequential(\n      (0): Conv2d(12, 32, kernel_size=(8, 8), stride=(4, 4), padding=(2, 2))\n      (1): ReLU()\n      (2): Conv2d(32, 64, kernel_size=(4, 4), stride=(2, 2), padding=(1, 1))\n      (3): ReLU()\n      (4): Conv2d(64, 64, kernel_size=(3, 3), stride=(1, 1), padding=(1, 1))\n      (5): ReLU()\n      (6): Flatten(start_dim=1, end_dim=-1)\n    )\n    (mlp): Linear(in_features=42, out_features=512, bias=True)\n  )\n  (pi_features_extractor): CustomDictFeaturesExtractor(\n    (cnn): Sequential(\n      (0): Conv2d(12, 32, kernel_size=(8, 8), stride=(4, 4), padding=(2, 2))\n      (1): ReLU()\n      (2): Conv2d(32, 64, kernel_size=(4, 4), stride=(2, 2), padding=(1, 1))\n      (3): ReLU()\n      (4): Conv2d(64, 64, kernel_size=(3, 3), stride=(1, 1), padding=(1, 1))\n      (5): ReLU()\n      (6): Flatten(start_dim=1, end_dim=-1)\n    )\n    (mlp): Linear(in_features=42, out_features=512, bias=True)\n  )\n  (vf_features_extractor): CustomDictFeaturesExtractor(\n    (cnn): Sequential(\n      (0): Conv2d(12, 32, kernel_size=(8, 8), stride=(4, 4), padding=(2, 2))\n      (1): ReLU()\n      (2): Conv2d(32, 64, kernel_size=(4, 4), stride=(2, 2), padding=(1, 1))\n      (3): ReLU()\n      (4): Conv2d(64, 64, kernel_size=(3, 3), stride=(1, 1), padding=(1, 1))\n      (5): ReLU()\n      (6): Flatten(start_dim=1, end_dim=-1)\n    )\n    (mlp): Linear(in_features=42, out_features=512, bias=True)\n  )\n  (mlp_extractor): MlpExtractor(\n    (policy_net): Sequential(\n      (0): Linear(in_features=25472, out_features=512, bias=True)\n      (1): Tanh()\n      (2): Linear(in_features=512, out_features=512, bias=True)\n      (3): Tanh()\n    )\n    (value_net): Sequential(\n      (0): Linear(in_features=25472, out_features=512, bias=True)\n      (1): Tanh()\n      (2): Linear(in_features=512, out_features=512, bias=True)\n      (3): Tanh()\n    )\n  )\n  (action_net): Linear(in_features=512, out_features=7, bias=True)\n  (value_net): Linear(in_features=512, out_features=1, bias=True)\n)', '_logger': '<stable_baselines3.common.logger.Logger object at 0x7ff5bce1e140>'}
